models/file/file_detection_model.pt (torch, 27164 bytes, 8 tensors)

network.0.weight f4 [64, 50]
0	0xbe6558fb	-0.22397225
1	0xbd8bef1a	-0.068327144
2	0x3d864d30	0.06557691
3	0xbe45f6e7	-0.19332467
4	0xbe1c1506	-0.15242395
5	0x3e417e19	0.18895759
6	0xbe72a4c8	-0.23695672
7	0xbda849a2	-0.08217169
8	0xbd97fcdc	-0.07421276
9	0x3e8854df	0.26627252
10	0x3dfab435	0.12241403
11	0xbe3b43b0	-0.1828754
12	0x3cb9e5bd	0.022692556
13	0xbee42185	-0.44556823
14	0xbee3b08c	-0.44470632
15	0xbe5d2c71	-0.21598984
16	0xbe42c174	-0.19019109
17	0x3e8a6f59	0.27038077
18	0x3ddb5061	0.107086904
19	0x3c7f8e5e	0.015597908
20	0xbcdc6a0a	-0.026906032
21	0x3dff6130	0.12469709
22	0xbe270521	-0.1631055
23	0x3d4bb942	0.049737222
24	0x3e06be6e	0.1315858
25	0x3d88d726	0.06681661
26	0x3e1485a0	0.14504099
27	0xbdd730ed	-0.10507379
28	0xbe2b67b4	-0.16738778
29	0x3d77264f	0.06033927
30	0xbc95e7a9	-0.01829894
31	0x3dc5e1fb	0.09662243
32	0x3e60e56f	0.21962522
33	0x3dc9e5ff	0.098583214
34	0x3e21ea2e	0.15811989
35	0x3e9364a0	0.28787708
36	0x3e3dafcb	0.18524091
37	0xbd9d0b44	-0.07668164
38	0x3ed199b2	0.40937573
39	0x3d6269fb	0.055276852
40	0x3d73734f	0.05943614
41	0xbcb4e16a	-0.022080142
42	0x3e47553e	0.19466111
43	0xbd9ec1f2	-0.07751836
44	0x3eab50bc	0.33460033
45	0xbd67e650	-0.056616127
46	0xbdfe875a	-0.1242816
47	0xbd51d5af	-0.051229175
48	0x3e1c374d	0.1525547
49	0x3d6aba65	0.057306666
50	0xbf525d3d	-0.8217352
51	0x3e97327b	0.295307
52	0xbed84a97	-0.42244408
53	0x3e5a85b3	0.21340065
54	0xbc162045	-0.009162967
55	0xbe92e594	-0.2869078
56	0x3ddba8e9	0.107255764
57	0xbd8c330c	-0.06845674
58	0xbe4cb654	-0.19991428
59	0xbec9579a	-0.39324647
60	0xbdbbe82f	-0.09175145
61	0xbcb922dc	-0.02259963
62	0xbd049b4f	-0.032374676
63	0x3cf28b11	0.029607328
64	0x3e5d5223	0.21613364
65	0x3e0310a4	0.12799317
66	0x3dd06252	0.10175003
67	0x3d3df671	0.046377603
68	0xbe19023b	-0.14942257
69	0x3d99820e	0.07495509
70	0xbccd1960	-0.025036514
71	0x3e03f99f	0.12888192
72	0x3dc8c651	0.09803451
73	0x3dd91d8c	0.10601339
74	0x3e0290a2	0.12750486
75	0xbd38ede6	-0.045148753
76	0xbe909d20	-0.28244877
77	0x3d914c7a	0.07094665
78	0x3e3ad2ce	0.18244478
79	0xbcf81438	-0.030283079
80	0x3dc6220c	0.09674463
81	0x3d4afe2e	0.04955881
82	0x3e03b442	0.12861732
83	0xbd6794b5	-0.056538302
84	0x3d668753	0.0562814
85	0x3d33f6cf	0.043936547
86	0xbd8ca72e	-0.068678245
87	0xbeb8b2ba	-0.36073858
88	0x3d206003	0.039154064
89	0xbd1b686b	-0.037941378
90	0x3dd4f97a	0.103991464
91	0x3e0dd732	0.13851622
92	0x3d6770a7	0.056503918
93	0x3e6d84ab	0.2319514
94	0x3db18a6d	0.08668981
95	0x3e6dbfd4	0.23217708
96	0x3bcb075e	0.0061959466
97	0x3e5df15d	0.21674104
98	0x3cae848b	0.021303436
99	0x3d5ef3bf	0.054431673
100	0xbe80f66f	-0.25188014
101	0xbe274488	-0.16334736
102	0xbede0a9c	-0.4336747
103	0x3cd64a7a	0.02615856
104	0x3ea8cad1	0.32967237
105	0x3dff55a5	0.12467507
106	0x3e2e6373	0.17030124
107	0xbe914591	-0.28373387
108	0x3dae56a6	0.08512621
109	0xbe93db44	-0.28878224
110	0x3d05f3c4	0.032703176
111	0x3d1f7496	0.038929544
112	0xbba411f4	-0.005007023
113	0xbc8d704f	-0.017265467
114	0x3dca5e09	0.09881217
115	0x3e65b10b	0.22430818
116	0xbdae6025	-0.08514432
117	0xbd68350e	-0.056691222
118	0xbd89c965	-0.06727866
119	0x3daf81d2	0.08569683
120	0x3de618f9	0.11235232
121	0x3e281a94	0.16416389
122	0x3df2f1cf	0.118625276
123	0xbd3bab35	-0.045817573
124	0x3e45a325	0.19300516
125	0xbe0c7c5f	-0.13719319
126	0x3df3b895	0.119004406
127	0x3da3adfa	0.07992168
128	0x3d17c605	0.03705408
129	0xbe30b1c6	-0.17255315
130	0x3e0f4901	0.13992693
131	0x3cfa7f49	0.030578272
132	0x3ddfcb5c	0.109274596
133	0x3c82dcf2	0.015974496
134	0x3c6da338	0.014504246
135	0xbcd1d2b5	-0.025613168
136	0xbc21ce3c	-0.00987583
137	0xbe39f199	-0.18158568
138	0x3daa7abd	0.08324192
139	0xbe05a927	-0.13052808
140	0x3e2aeb91	0.16691424
141	0x3f03b217	0.5144362
142	0x3e3dd5ad	0.18538542
143	0x3d986c3f	0.07442521
144	0xbe4807e3	-0.19534259
145	0x3e05c4fc	0.13063425
146	0x3dea000a	0.11425789
147	0xbd6c17ba	-0.057639815
148	0xbe820431	-0.25393823
149	0xbe68d6be	-0.22738168
150	0xbec5fddb	-0.3867024
151	0x3dd8ef23	0.10592487
152	0xbcf3633f	-0.02971041
153	0x3dc7a64e	0.09748517
154	0xbe3c5328	-0.18391097
155	0x3f0b1a5e	0.5433711
156	0x3e11c07e	0.14233586
157	0x3dfe0b8a	0.12404545
158	0xbec1cd92	-0.3785215
159	0x3c6ea5fb	0.01456594
160	0xbd492e05	-0.049116153
161	0xbd858851	-0.06520141
162	0x3e12a6c0	0.14321423
163	0xbee45737	-0.4459779
164	0x3e5d05ab	0.21584193
165	0xbe19eb3a	-0.15031138
166	0x3c123253	0.008923131
167	0x3defb1ef	0.1170386
168	0xbd72f0bd	-0.059311617
169	0x3ddbf795	0.10740582
170	0xbd085428	-0.033283383
171	0xbdc2b9a7	-0.095080666
172	0x3d777cdb	0.060421806
173	0x3d1170c1	0.03550792
174	0xbe2da823	-0.1695867
175	0x3da3e5e7	0.08002835
176	0x3e2d1808	0.16903698
177	0xbabd0ad1	-0.0014422779
178	0x3cac13c7	0.021005524
179	0x3e091196	0.13385615
180	0xbe60f0dc	-0.2196688
181	0x3d8f78cd	0.07005463
182	0x3be6cbc7	0.007043335
183	0xbe0c5161	-0.13702919
184	0xbd8fe7af	-0.07026612
185	0xbdb2af8c	-0.08724889
186	0x3d300b1b	0.04297934
187	0xbe1306d3	-0.14358072
188	0x3e42b734	0.19015199
189	0x3e1c2c85	0.15251358
190	0x3ee349f9	0.44392374
191	0x3e542f07	0.20721065
192	0xbedc7034	-0.43054354
193	0x3d1eef24	0.03880228
194	0x3ca4d4a4	0.020120926
195	0x3d47b4bf	0.048756357
196	0xbe16f5ce	-0.14742205
197	0x3d4c46e2	0.049872287
198	0x3dd93819	0.10606403
199	0xbe939d4c	-0.28830945
200	0x3dae4cad	0.085107185
201	0xbc97c293	-0.018525397
202	0x3d76d56c	0.06026213
203	0x3d25f3c3	0.040515672
204	0xbe7277ad	-0.23678465
205	0xbded3278	-0.11581892
206	0xbc62abfa	-0.013834948
207	0x3c15ce3d	0.009143409
208	0x3d358b08	0.044322044
209	0xbd117d3a	-0.035519816
210	0xbeb0884e	-0.34478992
211	0x3e8a2761	0.2698317
212	0xbd83d87d	-0.06437776
213	0x3dde7bb8	0.10863441
214	0xbed54f0d	-0.41661873
215	0xbd8ab32f	-0.06772458
216	0x3d9aba73	0.075550936
217	0x3ea7eb89	0.32796887
218	0x3dc9badf	0.09850096
219	0xbee4232b	-0.4455808
220	0x3e8294a3	0.25504026
221	0x3e41bdcd	0.1892006
222	0xbe0d2a86	-0.13785753
223	0xbd3daf67	-0.046309855
224	0x3d9acd64	0.075587064
225	0xbd0db24c	-0.034593865
226	0x3e2e9cbb	0.17051975
227	0xbdb55cb2	-0.08855571
228	0x3c63e854	0.013910372
229	0x3be5baa0	0.007010773
230	0xbc78fa70	-0.015196428
231	0xbe3eb3fe	-0.18623349
232	0xbdabba35	-0.083851255
233	0xbe878fa4	-0.26476777
234	0x3d92d1e1	0.071689375
235	0x3e44883d	0.19192596
236	0xbd48fef2	-0.04907126
237	0xbd4c7130	-0.04991263
238	0x3e2a4e77	0.16631494
239	0xbd66bc76	-0.056332074
240	0xbdb2bf93	-0.08727946
241	0xbcd74b35	-0.026280979
242	0xbea04228	-0.31300473
243	0x3da4f428	0.080543816
244	0x3e23e03f	0.16003512
245	0x3d437235	0.04771634
246	0x3d86089e	0.06544612
247	0x3decefa1	0.11569143
248	0x3ea6aae2	0.32552248
249	0x3e16d6b3	0.14730339
250	0xbea2d756	-0.31804913
251	0x3d587f96	0.05285605
252	0xbea19ffe	-0.31567377
253	0x3c73890b	0.014864217
254	0xbe6a2ff6	-0.22869858
255	0xbe287f8c	-0.16454905

network.0.bias f4 [64]
0	0xbeabc7cd	-0.33550873
1	0xbe9de01a	-0.30835038
2	0xbea55e1b	-0.3229836
3	0xbeeb7e04	-0.4599458
4	0xbee2622e	-0.4421553
5	0xbeec5200	-0.4615631
6	0xbe9340c4	-0.2876035
7	0xbe9c6931	-0.30549005
8	0xbf1320e7	-0.5747208
9	0xbee92ec6	-0.45543498
10	0xbebafcbb	-0.36520943
11	0xbee05794	-0.43816817
12	0xbdab8ebf	-0.08376836
13	0xbe7196e4	-0.23592716
14	0xbe6f70cd	-0.23382874
15	0xbdf60ea1	-0.12014509
16	0xbe9345d0	-0.287642
17	0xbe8d2a19	-0.2757118
18	0xbdb62b7d	-0.088950135
19	0xbe81f6a1	-0.25383475
20	0xbe4f4a09	-0.20243086
21	0xbe7bbe7a	-0.2458438
22	0xbe60c5d3	-0.21950464
23	0xbe44241a	-0.19154397
24	0xbe551203	-0.20807652
25	0xbe71f4da	-0.2362856
26	0xbe9da17e	-0.3078727
27	0xbe705029	-0.23468079
28	0xbeb94b94	-0.36190474
29	0xbef57ff4	-0.47949183
30	0xbeafee7c	-0.34361637
31	0xbef70a6e	-0.48250145
32	0xbea8fe4a	-0.33006507
33	0xbe53d63d	-0.20687194
34	0xbec834a6	-0.39102668
35	0xbeb0b0c1	-0.34509853
36	0xbeae5010	-0.34045458
37	0xbeba12a1	-0.36342338
38	0xbe6ffd70	-0.23436522
39	0xbeb74ff3	-0.35803184
40	0xbdc73490	-0.097268224
41	0xbe85f893	-0.2616621
42	0xbeaf936c	-0.3429216
43	0xbee1c0f3	-0.4409252
44	0xbe511c8b	-0.20421045
45	0xbe53e575	-0.20693
46	0xbd98fa8e	-0.074696645
47	0xbec7c5bd	-0.3901805
48	0xbea0bf1e	-0.3139581
49	0xbeed4029	-0.46338013
50	0xbea49584	-0.3214532
51	0xbe6a3dfa	-0.22875205
52	0xbdc14306	-0.09436612
53	0xbe96a586	-0.2942316
54	0xbe80413b	-0.25049767
55	0xbeb65003	-0.3560792
56	0xbe70c4eb	-0.23512618
57	0xbed25dc4	-0.41087162
58	0xbe1959cb	-0.1497566
59	0xbf292b5a	-0.66081774
60	0xbec47272	-0.38368565
61	0xbec0f4ee	-0.37686867
62	0xbe9f0475	-0.31058088
63	0xbea0fdf4	-0.3144375

network.3.weight f4 [32, 64]
0	0xbe237461	-0.15962364
1	0x3e08a8c2	0.13345626
2	0xbe29c0fd	-0.16577525
3	0xbe001914	-0.12509567
4	0xbdd2243f	-0.1026082
5	0xbe2c660b	-0.16835801
6	0x3b35caab	0.0027739208
7	0x3dc46d73	0.09591188
8	0xbec847c1	-0.39117244
9	0xbdae9b21	-0.08525682
10	0xbe3ccff0	-0.18438697
11	0x3d0b31a1	0.033982877
12	0xbe985afb	-0.29756913
13	0xbb09be4a	-0.0021017962
14	0x3e5c32af	0.2150371
15	0xbc5ad71f	-0.013356953
16	0xbe754062	-0.23950341
17	0x3e701f2f	0.23449396
18	0x3da027d2	0.07820095
19	0x3c9c8c2d	0.01910981
20	0xbd349f07	-0.044096973
21	0xbe820a14	-0.25398314
22	0xbeb5465b	-0.3540524
23	0xbdaaa683	-0.08332541
24	0xbd990379	-0.074713655
25	0x3cffbc92	0.031217847
26	0xbe90f643	-0.28312883
27	0x3e3c27bf	0.18374537
28	0x3dc48e54	0.095974594
29	0xbe8c33d7	-0.273833
30	0xbdc4cc44	-0.09609273
31	0xbe0e0c0d	-0.13871785
32	0xbe7d04ac	-0.24708813
33	0xbe2815b7	-0.16414534
34	0x3b5c5796	0.0033621541
35	0x3d4fc1ed	0.05072205
36	0x3e07a635	0.13246997
37	0xbd8b2b12	-0.067953244
38	0xbd9ca880	-0.07649326
39	0xbe92eb38	-0.28695083
40	0x3b61c7df	0.0034451408
41	0x3c84a314	0.016191043
42	0x3e4759c5	0.19467838
43	0x3da543db	0.08069583
44	0x3e438975	0.19095404
45	0xbde01a29	-0.1094249
46	0xbceddf19	-0.029037045
47	0xbdaaeb03	-0.08345606
48	0x3d5bfbc5	0.053706903
49	0x3df250c4	0.11831811
50	0xbce172e6	-0.027520608
51	0x3e234649	0.1594478
52	0xbf0e8ee2	-0.5568677
53	0xbef7ea93	-0.48421153
54	0x3e3b3d60	0.18285131
55	0xbe4ba6b7	-0.19887815
56	0xbde59d05	-0.1121159
57	0xbd2ac1ab	-0.041688602
58	0x3dabf1cd	0.08395729
59	0xbeda3715	-0.4262015
60	0xbe838d64	-0.2569381
61	0x3d85de75	0.06536571
62	0xbe600791	-0.21877886
63	0xbc66a02e	-0.014076276
64	0x3e3c2c2d	0.18376227
65	0xbe57d3a2	-0.21076825
66	0xbd064ea5	-0.032789845
67	0xbe84bcc2	-0.2592526
68	0x3d8ca3cd	0.0686718
69	0xbda37947	-0.07982116
70	0x3e2e24b1	0.17006184
71	0xbe88df72	-0.26732975
72	0xbee0fbef	-0.4394221
73	0x3da5f489	0.08103282
74	0xbd607e00	-0.054807663
75	0xbe4de848	-0.2010814
76	0x3e2a8710	0.16653085
77	0x3da890f0	0.0823077
78	0x3dee81fe	0.11645888
79	0x3c8f4db2	0.017493103
80	0x3c624879	0.013811224
81	0xbec4cfcc	-0.38439786
82	0xbe584957	-0.21121727
83	0x3df7e5fd	0.12104414
84	0xbdad03d3	-0.08447995
85	0xbe4355a1	-0.19075634
86	0x3d257337	0.04039308
87	0xbd685466	-0.056721114
88	0xbe40ea5a	-0.18839398
89	0xbe303525	-0.17207773
90	0x3c006ac4	0.007837955
91	0xbd3f07c2	-0.046638258
92	0x3e5c3746	0.2150546
93	0xbe57729e	-0.21039817
94	0x3e254184	0.16138273
95	0xbda1d5eb	-0.0790213
96	0xbe122b3b	-0.14274304
97	0xbb352d81	-0.002764553
98	0xbd5853ef	-0.05281442
99	0x3b8024d6	0.003910641
100	0xbea3bf60	-0.31981945
101	0xbe4131c4	-0.1886664
102	0xbe84496f	-0.25837275
103	0xbe7eaf48	-0.24871552
104	0x3bf1e827	0.007382411
105	0xbec18d4e	-0.3780312
106	0xbd864016	-0.06555192
107	0xbea143e1	-0.314971
108	0xbe8e2526	-0.27762717
109	0xbe90c2e0	-0.28273678
110	0x3c0c6aae	0.008570356
111	0x3e1316b5	0.14364131
112	0xbd8c8e34	-0.068630606
113	0x3deef4e0	0.116678
114	0xbe57ac39	-0.21061791
115	0xbdd9a317	-0.1062681
116	0x3dfb7915	0.12278954
117	0xbe34a25a	-0.17640057
118	0xbea6af9d	-0.32555857
119	0xbea8198a	-0.32831985
120	0x3dfa6f0e	0.12228213
121	0xbcce1356	-0.025155704
122	0x3e00aae5	0.12565191
123	0xbf007dde	-0.5019206
124	0xbe4cbed3	-0.19994669
125	0xbc37ff96	-0.01123037
126	0x3dda7241	0.106663235
127	0xbe9358cb	-0.2877868
128	0xbf0fb62a	-0.56137335
129	0x3e87015e	0.2636823
130	0xbc8403ae	-0.016115036
131	0xbe0ab7fb	-0.13546745
132	0xbe911835	-0.2833878
133	0x3e603ec1	0.21898939
134	0xbe69217e	-0.22766683
135	0xbdd7c3c8	-0.10535389
136	0x3e5c2499	0.21498336
137	0xbdbe825d	-0.093022086
138	0xbed2a788	-0.4114344
139	0x3db5fb76	0.08885853
140	0x3e6be6c1	0.23037244
141	0xbe82ab18	-0.2552116
142	0xbc9a7ee9	-0.018859344
143	0x3e378cbb	0.17924778
144	0x3d348583	0.04407264
145	0x3a1a99d5	0.00058975565
146	0x3e430e19	0.19048347
147	0x3cfbd3da	0.030740667
148	0xbc389aad	-0.011267346
149	0x3c83cbc7	0.01608838
150	0x3e315c54	0.17320377
151	0xbdd2c5cd	-0.10291634
152	0xbe9106c2	-0.28325468
153	0xbdfda94c	-0.123858064
154	0xbe83fe00	-0.25779724
155	0xbe05ae4f	-0.13054775
156	0xbb5ac8b8	-0.0033383798
157	0x3dfdb70a	0.123884276
158	0x3a2c8302	0.0006580801
159	0xbe2821a4	-0.16419083
160	0xbd71c213	-0.059022974
161	0xbdf02b9e	-0.11727069
162	0x3c3fc826	0.011705434
163	0xbdfa2c22	-0.12215449
164	0xbe312e85	-0.17302902
165	0xbe143bc2	-0.14475921
166	0x3d451c65	0.048122782
167	0x3e4f0279	0.20215787
168	0xbe45e6ea	-0.19326368
169	0x3d54f4e8	0.051991373
170	0xbd92a07a	-0.07159515
171	0xbe9ae036	-0.30249184
172	0xbe2c39d0	-0.16818929
173	0x3e2b6bc6	0.16740331
174	0xbe2ce7c7	-0.16885291
175	0xbd14cb4e	-0.0363267
176	0xbeb1f5fa	-0.34757978
177	0x3ccda6df	0.025103984
178	0xbd5351bf	-0.05159163
179	0x3dbfddd9	0.09368486
180	0xbdacfdf5	-0.08446876
181	0xbd6549ff	-0.05597877
182	0xbda46ab0	-0.080281615
183	0xbdd36c59	-0.103234
184	0xbba8ff7b	-0.005157409
185	0xbd022488	-0.03177312
186	0xbe768c57	-0.24076973
187	0x3ce523f2	0.027971242
188	0xbc815014	-0.015785255
189	0x3cdea3ee	0.027177777
190	0xbc1f502a	-0.009723702
191	0x3e215c6c	0.15757912
192	0xbd794cf6	-0.06086441
193	0xbd3c53db	-0.04597841
194	0xbe36aa6f	-0.17838453
195	0xbcf34495	-0.029695788
196	0x3d25bffc	0.040466294
197	0x3c6bbf3c	0.014388856
198	0xbe3e3679	-0.18575467
199	0xbe087028	-0.13324034
200	0xbe088a9f	-0.1333413
201	0xbdf80bbc	-0.12111613
202	0xbde17f49	-0.11010606
203	0xbc50e136	-0.012749007
204	0xbe06eac0	-0.13175488
205	0xbe1bcc56	-0.15214667
206	0x3d32059d	0.043462384
207	0xbe0f5dbc	-0.140006
208	0xbe0a741d	-0.13520856
209	0xbdb5ef7f	-0.08883571
210	0xbd20ad17	-0.03922757
211	0xbdfb66f4	-0.12275496
212	0xbdb6ced2	-0.089261666
213	0xbd863b7b	-0.06554314
214	0x3cbbc47a	0.022920836
215	0x3cf0ce2f	0.029395191
216	0xbdaa35d6	-0.0831105
217	0x3c412c83	0.011790398
218	0xbd968ac7	-0.073506884
219	0xbd5789b0	-0.052621543
220	0xbe005a03	-0.12534337
221	0xbc8d85fe	-0.017275807
222	0xbdda9ff7	-0.10675042
223	0xbcf7bbe1	-0.030240955
224	0xbe13c6d0	-0.1443131
225	0xbd9403ab	-0.07227262
226	0xbddcfbc6	-0.107902095
227	0xbe2e2ca5	-0.17009218
228	0xbe0bb992	-0.13645008
229	0x3d5c42f6	0.053774796
230	0xbe0fa215	-0.14026673
231	0xbc4ca3b8	-0.0124902055
232	0xbca72d47	-0.020407332
233	0xbdd368b8	-0.10322708
234	0xbe1aafdf	-0.15106152
235	0x3cfd09b6	0.03088842
236	0xbd467973	-0.048455667
237	0xbd0b3cfa	-0.0339937
238	0x3cade885	0.021229038
239	0xbcf4b1cf	-0.029869942
240	0x3d28535f	0.041095134
241	0xbdc524b2	-0.0962614
242	0xbdf8dad4	-0.12151113
243	0x3bd1afb5	0.0063991197
244	0x3e00b102	0.12567523
245	0xbdc7b423	-0.09751155
246	0xbd5a1674	-0.05324407
247	0xbe0628ee	-0.13101551
248	0x3cb906ba	0.022586215
249	0xbd78e2be	-0.060763113
250	0xbe058579	-0.13039197
251	0x3d6ad1aa	0.057328857
252	0xbcd20dc6	-0.025641333
253	0xbe0cec3c	-0.13761991
254	0xbc7af44a	-0.015317032
255	0xbd999888	-0.07499796

network.3.bias f4 [32]
0	0xbdd0e4ab	-0.10199865
1	0x3e449d0e	0.19200537
2	0x3d46a46f	0.04849666
3	0xbe2c5fd2	-0.16833428
4	0x3d8d56f6	0.06901352
5	0x3df98483	0.12183478
6	0xbd85f022	-0.06539942
7	0x3e67428c	0.2258398
8	0xbdc897e5	-0.097945966
9	0xbdd740a1	-0.10510374
10	0x3dbffa51	0.09373916
11	0x3d8265b7	0.06367057
12	0xbcab4105	-0.020905027
13	0xbd31738c	-0.043323085
14	0xbddf62f0	-0.10907543
15	0xbd4ae274	-0.04953237
16	0x3dca4e3f	0.098782055
17	0xbdc3dd7c	-0.09563729
18	0xbd573580	-0.052541256
19	0x3c813915	0.01577429
20	0xbde18f33	-0.11013641
21	0xbd222634	-0.039587215
22	0xbd3c2be8	-0.04594031
23	0x3e6dfba9	0.23240532
24	0xbda8b042	-0.082367435
25	0x3e3b58ca	0.18295589
26	0x3df94bf3	0.12172689
27	0x3d02553e	0.031819575
28	0xbde80538	-0.113291204
29	0xbd0aeec2	-0.033919103
30	0x3e063cf3	0.13109188
31	0x3c45cbca	0.012072513

network.6.weight f4 [16, 32]
0	0xbdf0e76c	-0.1176289
1	0xbe252285	-0.1612645
2	0x3e52272f	0.2052276
3	0xbd4cfac7	-0.050043847
4	0xbeb21ee1	-0.34789184
5	0x3eb65881	0.35614398
6	0x3e40eb90	0.1883986
7	0xbe82fbe8	-0.25582814
8	0xbd80c139	-0.06286854
9	0x3e361a64	0.17783505
10	0xbca179e3	-0.01971144
11	0xbe560a9f	-0.20902489
12	0xbe55646c	-0.20839089
13	0xbeab827b	-0.33497986
14	0xbde62438	-0.11237377
15	0xbeb6b4b4	-0.3568474
16	0xbebc3386	-0.3675806
17	0xbe5ba574	-0.21449834
18	0xbe3d39d2	-0.18479088
19	0x3e20f93f	0.1572008
20	0x3d7d09c7	0.061776903
21	0x3e186fd2	0.14886406
22	0x3db2a810	0.08723462
23	0xbe343e0a	-0.17601791
24	0x3d276c69	0.040874872
25	0x3e40ee79	0.1884097
26	0xbe357caa	-0.17723337
27	0x3df9a1fe	0.12189101
28	0xbeb7d749	-0.35906437
29	0x3dc0f96d	0.09422574
30	0xbe3f7d69	-0.18700184
31	0xbdaa1543	-0.083048366
32	0x3d151dfb	0.036405545
33	0x3e475822	0.19467214
34	0xbde8f8e0	-0.11375594
35	0x3d2aea78	0.041727513
36	0xbe2bc599	-0.16774596
37	0xbdb657d3	-0.0890347
38	0x3dc555c0	0.09635496
39	0xbe8bc7e3	-0.2730094
40	0xbe26bf20	-0.16283846
41	0xbe478560	-0.19484472
42	0xbe1d911e	-0.15387389
43	0x3d07a567	0.033116724
44	0xbdf1ac0c	-0.118003935
45	0xbdfdd6a6	-0.123944566
46	0x3c87b8f6	0.016567688
47	0xbe1b9f19	-0.1519741
48	0xbe16ff9f	-0.14745949
49	0xbe35e691	-0.17763735
50	0xbcdf89b6	-0.027287345
51	0xbdee9451	-0.11649383
52	0xbcace520	-0.021105349
53	0xbd9d19d2	-0.076709405
54	0xbd3292c2	-0.04359699
55	0xbe724c39	-0.23661889
56	0xbcdd8933	-0.02704296
57	0xbe193bb6	-0.14964184
58	0x3e813fde	0.2524404
59	0xbadfd2dc	-0.0017076391
60	0x3d8d950d	0.06913195
61	0xbe463aa3	-0.19358306
62	0x3e38c691	0.18044497
63	0xbd91ccc9	-0.07119138
64	0xbd941db6	-0.072322294
65	0xbd25bfa3	-0.040465962
66	0x3cb0211d	0.021500165
67	0x3d36dc19	0.044643495
68	0x3e2b2307	0.1671258
69	0x3d834b97	0.06410902
70	0xbe71e955	-0.23624165
71	0xbe3e3d5d	-0.18578096
72	0xbe911d63	-0.28342733
73	0xbde7e466	-0.113228604
74	0xbe1bed0a	-0.15227142
75	0xbe37a9f7	-0.1793593
76	0x3cfc8ce4	0.0308289
77	0xbe1ff1bf	-0.15619563
78	0xbc96cf10	-0.018409282
79	0xbe31c52d	-0.17360373
80	0x3d6f0d8e	0.058362536
81	0xbe382455	-0.1798261
82	0xbded295a	-0.11580153
83	0xbe37870d	-0.17922612
84	0xbe9b2a36	-0.30305642
85	0xbc74f4b0	-0.014950916
86	0xbdb5003e	-0.08837937
87	0xbe3065cf	-0.17226337
88	0x3ae9766e	0.0017811784
89	0x3dc946ef	0.09827983
90	0x3ec56ca4	0.3855945
91	0xbe02abc0	-0.1276083
92	0xbc0f1343	-0.00873262
93	0xbe8c0c8c	-0.27353323
94	0xbd49f116	-0.049302183
95	0x3cf1d0be	0.029518481
96	0x3e7094ba	0.23494235
97	0x3c83d3a2	0.016092125
98	0xbe51ff6d	-0.20507593
99	0xbe1caf9c	-0.15301365
100	0xbe5de836	-0.21670613
101	0x3e495d31	0.19664456
102	0x3e30b16d	0.17255183
103	0xbd7db2c6	-0.06193807
104	0x3e1e4e7e	0.1545963
105	0xbe0850cc	-0.13312072
106	0xbe95669d	-0.2917985
107	0xbc6b70c6	-0.014370149
108	0x3dad7be1	0.08470894
109	0xbeb1b3eb	-0.3470758
110	0xbe271fe0	-0.16320753
111	0x3e068034	0.13134843
112	0x3e1a0c93	0.15043859
113	0x3d55f07a	0.05223129
114	0xbe3f5bb6	-0.18687329
115	0xbdc67b92	-0.09691538
116	0xbe8ce837	-0.27520916
117	0xbe0785f9	-0.132347
118	0xbce3b1f2	-0.027794812
119	0x3dfb9f4a	0.12286241
120	0xbe1fdd1c	-0.1561169
121	0x3e4c7cc6	0.19969472
122	0xbea4786b	-0.32123122
123	0x3d2f6028	0.04281631
124	0x3ce9a24f	0.028519778
125	0x3d9cb601	0.07651902
126	0x3ddc3afc	0.10753438
127	0xbdedefd3	-0.116180085
128	0xbe0a80e9	-0.13525738
129	0xbe06b3a9	-0.13154472
130	0xbdb59537	-0.08866351
131	0x3d4bc695	0.04974993
132	0xbe921760	-0.2853346
133	0x3d85c6bb	0.065320455
134	0x3d7339c3	0.059381258
135	0xbe1053eb	-0.14094512
136	0xbe426ff8	-0.18988025
137	0x3e9a0f77	0.30089924
138	0xbcad7d42	-0.021177892
139	0xbe8bf3e5	-0.27334514
140	0x3c9c93be	0.019113418
141	0xbe5e33ee	-0.21699497
142	0x3d097a5f	0.033563968
143	0xbdde79aa	-0.10863049
144	0xbe9011fc	-0.2813872
145	0x3db4f837	0.08836406
146	0xbd804e9c	-0.062649935
147	0x3e224a08	0.15848553
148	0xbe96279d	-0.29327098
149	0x3e2ecd7b	0.17070572
150	0xbe19fbbd	-0.15037437
151	0xbec4a108	-0.38404107
152	0xbd037533	-0.03209419
153	0x3dc2c5c0	0.09510374
154	0xbe6f277b	-0.23354904
155	0x3d9d09e6	0.076679036
156	0xbd562aae	-0.052286796
157	0xbdcd1c4e	-0.10015164
158	0xbeab7dc4	-0.3349439
159	0x3ca18414	0.0197163
160	0x3ca60a9b	0.020268729
161	0x3e52d2fa	0.20588294
162	0xbc91d6ec	-0.017802678
163	0xbe27d466	-0.16389617
164	0xbe71dbc2	-0.23618987
165	0x3deca428	0.11554748
166	0xbe423fbc	-0.18969625
167	0xbe4880f1	-0.19580437
168	0xbc0130d3	-0.007885176
169	0x3c4d8c2d	0.012545628
170	0x3e87f998	0.26557612
171	0xbd50a868	-0.050941855
172	0xbce0406d	-0.02737447
173	0xbd8962c3	-0.067082904
174	0xbdf1188b	-0.11772259
175	0x3d7d4785	0.061835784
176	0xbe0833ca	-0.13301006
177	0xbd32b1fd	-0.043626774
178	0xbdd38ca5	-0.1032956
179	0xbde0f2e8	-0.10983831
180	0xbe4e022b	-0.20118015
181	0xbe1ff6c1	-0.15621473
182	0x3ccec2b2	0.025239322
183	0x3c252ae4	0.010081027
184	0x3e697b3e	0.2280092
185	0x3e3b8fec	0.1831662
186	0xbd98b097	-0.07455557
187	0xbda479af	-0.08031022
188	0x3cf787c4	0.030216105
189	0xbe3e8589	-0.18605627
190	0x3c4995f0	0.012303814
191	0x3e1dbf19	0.15404929
192	0xbef17411	-0.47158864
193	0xbe6bf78d	-0.23043652
194	0x3c4610bf	0.0120889535
195	0xbe0ebc36	-0.13938984
196	0xbea3c162	-0.31983477
197	0x3ea350f6	0.31897706
198	0xbb4177f5	-0.0029520963
199	0xbccb42b0	-0.024812073
200	0x3d933f33	0.07189789
201	0x3dc61b9e	0.09673236
202	0x3e1ee571	0.15517212
203	0xbe6c5096	-0.23077616
204	0xbdf8f83a	-0.121567205
205	0xbe8bf667	-0.27336428
206	0xbb9235cd	-0.00446198
207	0xbe7cb3ce	-0.24677965
208	0xbec5ad3e	-0.38608736
209	0x3c20c109	0.009811648
210	0xbd363db7	-0.04449245
211	0x3e33daec	0.17563981
212	0xbeaee6ff	-0.3416061
213	0x3e5fef5e	0.21868655
214	0x3dc3190c	0.09526262
215	0xbe9001b5	-0.28126302
216	0xbbb3d956	-0.005488555
217	0x3e850bbc	0.25985515
218	0xbe2fe3a3	-0.1717668
219	0x3e38e67a	0.1805667
220	0x3dcdf14f	0.100557916
221	0x3e05c260	0.1306243
222	0xbe9ed79d	-0.31023875
223	0xbd5fe2c5	-0.054659624
224	0x3db751f6	0.0895118
225	0x3e8025fe	0.25028986
226	0xbe482856	-0.19546637
227	0xbd2add22	-0.041714795
228	0x3e91b0bc	0.2845515
229	0xbe23ccb1	-0.15996052
230	0xbe877cb6	-0.26462334
231	0x3e990777	0.29888508
232	0xbef0b883	-0.4701577
233	0xbe4758f2	-0.19467524
234	0x3e096cea	0.13420454
235	0x3e2bce5d	0.1677794
236	0x3e78b100	0.2428627
237	0xbd1de379	-0.038547013
238	0xbeaca3d5	-0.33718744
239	0x3e6a76ab	0.2289683
240	0x3e992e96	0.29918355
241	0xbd1e3da1	-0.038632993
242	0xbd8f0836	-0.06983988
243	0x3c95844c	0.01825156
244	0xbdfe677b	-0.12422081
245	0xbdd90084	-0.105958015
246	0xbe76a76b	-0.24087302
247	0x3e4d9beb	0.20079009
248	0xbe9288f5	-0.28620115
249	0x3e238ba7	0.15971242
250	0x3d88ca08	0.066791594
251	0xbd378d0e	-0.044812255
252	0xbe679e76	-0.22619042
253	0xbe82712a	-0.25476962
254	0x3eb04354	0.34426367
255	0xbd524b48	-0.051341325

network.6.bias f4 [16]
0	0x3e0d7c59	0.13816966
1	0x3bf09c55	0.007342855
2	0xbcdae444	-0.026720174
3	0xbdbd0fe3	-0.09231546
4	0x3e0cc565	0.13747175
5	0xbea40e95	-0.32042375
6	0x3e27305e	0.16327044
7	0x3e8bd34f	0.27309653
8	0xbe18f7d6	-0.14938292
9	0xbe4ae8c6	-0.19815359
10	0xbeae2f8d	-0.34020653
11	0x3dd4ee71	0.103970416
12	0x3e55a3ce	0.20863268
13	0x3e2fef5a	0.17181149
14	0x3e70b359	0.23505916
15	0x3e92d9c7	0.28681776

network.8.weight f4 [2, 16]
0	0xbc5dbe77	-0.01353418
1	0xbcd1666f	-0.02556154
2	0xbd1479d7	-0.036249008
3	0xbe927318	-0.28603435
4	0x3d83eaf6	0.064412996
5	0x3e8f4c1c	0.27987754
6	0xbc8d75d4	-0.017268099
7	0xbe91c31f	-0.28469178
8	0xbd926ff8	-0.071502626
9	0xbe8fa141	-0.28052714
10	0x3db27865	0.0871437
11	0xbe972069	-0.29516914
12	0xbea8cae0	-0.3296728
13	0x3d030936	0.031991206
14	0x3e5626be	0.20913216
15	0xbe14271f	-0.14468049
16	0xbeadf953	-0.33979282
17	0xbb92ab73	-0.0044760047
18	0x3df67db8	0.12035698
19	0xbc88fe7d	-0.016722912
20	0xbe06e25b	-0.13172285
21	0x3decf16e	0.115694866
22	0xbea691bc	-0.32533062
23	0x3eca0003	0.39453134
24	0x3de702a5	0.11279801
25	0xbdcb6343	-0.09931042
26	0xbe14bd49	-0.14525332
27	0x3e8ef5a4	0.27921784
28	0xba88dcd0	-0.0010441784
29	0xbe9b186f	-0.3029208
30	0xbddaadc9	-0.10677678
31	0x3ead47c5	0.33843818

network.8.bias f4 [2]
0	0x3e4bd521	0.19905521
1	0x3cf4cd62	0.02988309
